day1/model_Gloria.pt (torch, 89280 bytes, 10 tensors)

conv1.weight f4 [16, 3, 3, 3]
000000 fa 92 d3 bc 02 7c a9 bc 20 78 7c 3c 0f 01 c8 3d
       -0.02582692 -0.020689014 0.015409499 0.09765827
000010 5c a7 82 be c8 b8 43 3e 25 bb 0f 3f 17 8c 0a bf
       -0.2551831 0.19113457 0.56144935 -0.5412001
000020 65 1d 41 be d9 8f b2 3d 68 bd da bc 17 18 69 bd
       -0.1885887 0.08718843 -0.026701644 -0.05690774
000030 a0 7c 1c 3e d8 2f 00 be 3f 1a 96 bc 32 6e 58 3d
       0.15281916 -0.12518251 -0.018323062 0.052839465
000040 5d e5 02 3d 6e 68 87 bd 6d 35 96 3e af b2 d0 bd
       0.03195702 -0.06611715 0.29337636 -0.10190331
000050 99 9d 75 be 8c 4c b0 bb b7 63 a5 3d df bc 9f bd
       -0.239859 -0.005380219 0.0807566 -0.07799696
000060 33 3c 1c 3e a1 6a c4 be 4f de a6 3e 48 77 fa bb
       0.15257339 -0.383626 0.32591483 -0.007643614
000070 e1 76 79 be 7f 82 ed bc c2 5d b3 be e3 ee f4 3d
       -0.24361755 -0.02899289 -0.3503247 0.119596265
000080 4c 69 a3 3c f3 f4 c3 3d e4 65 ce 3c d8 fc 86 3e
       0.01994767 0.09568205 0.02519507 0.2636478
000090 ea 2c 57 3e 36 98 f2 bd a9 49 93 bd b6 97 9a bd
       0.21013227 -0.11845438 -0.07191784 -0.07548468
0000a0 74 9d 2b be 6e df 1e 3f bb ef e9 bd d5 49 ab 3e
       -0.16759282 0.62059677 -0.11422678 0.33454767
0000b0 37 bf 4f be 01 b7 c9 3d fe e3 15 3e 1f 9d 26 be
       -0.20287786 0.09849358 0.14637753 -0.16270874
0000c0 ef 37 ce 3d 52 38 a7 be 66 44 ca 3d 72 59 a8 be
       0.10069262 -0.32660156 0.09876327 -0.3288074
0000d0 dd 51 5a 3e 65 da 4a bd c9 41 a8 3d 21 75 c7 3c
       0.21320291 -0.049524684 0.082156725 0.024347844
0000e0 0f 37 e2 bd 30 75 d4 3c df 3c 40 be af c8 3d 3e
       -0.11045658 0.025934786 -0.1877322 0.18533586
0000f0 6b 5c cd be b8 79 a9 3e b2 f2 95 3d cd 98 ff bc
       -0.40109572 0.33100677 0.07321681 -0.03120079
000100 63 41 81 3e 2a fc 8a be c0 2e 80 be 19 28 4d 3e
       0.252452 -0.2714551 -0.25035667 0.20034827
000110 e8 c0 e6 3d 2b 89 b6 bc b0 69 92 bc 95 61 e5 3c
       0.11267263 -0.022282204 -0.017872661 0.028000632
000120 2b cc c7 3e 7f 91 7f be d4 61 4d be 7b 1c 44 be
       0.39022955 -0.24957846 -0.2005685 -0.1915149
000130 10 c6 c3 bb 2a d3 5b 3e 26 7b 8f bd db 93 ab 3e
       -0.0059745386 0.21467271 -0.070059106 0.33511242
000140 39 75 9e be 66 44 ec 3e 60 e1 33 3e 96 49 b5 3e
       -0.3094881 0.46145934 0.17566442 0.35407704
000150 06 f3 54 3d 20 7b 3d 3e c1 8f f7 bd 2b 5f 07 bf
       0.051989578 0.18504 -0.12087966 -0.5287959
000160 fb 00 b2 be e8 7c 1d be de 58 88 3d a6 79 cc bd
       -0.34766373 -0.15379679 0.06657575 -0.0998414
000170 ab 3c 80 3c 9e 45 52 3e c7 c6 fb 3d a5 15 d6 3d
       0.015653929 0.2053437 0.12293773 0.10453347
000180 7c 99 2d be d9 84 5f be a1 37 04 be dc 6f af bc
       -0.16953081 -0.21828021 -0.12911846 -0.021415643
000190 57 13 3d 3d a4 1f 41 bc da 34 c6 bd 9f 0d f3 3d
       0.046161022 -0.011787329 -0.096780494 0.118678324
0001a0 6d 39 b9 3c 94 98 14 bd 19 29 35 bd 50 a3 dc 3d
       0.02261039 -0.036278322 -0.044228647 0.10773337
0001b0 47 d4 dd bd b3 ba e8 3c 5f 9b 39 3e 6c 08 be bc
       -0.10831504 0.028409338 0.18125676 -0.023197375
0001c0 88 c1 94 be ae 4b 3e be be 99 01 be d1 f5 da bc
       -0.29053903 -0.18583557 -0.12656304 -0.026728543
0001d0 b1 be 06 be 7e 0c 95 bd a2 2d 32 3e 47 c4 af 3d
       -0.1315868 -0.07277773 0.1740022 0.08582359
0001e0 26 22 13 3f 0e ff 8f bd dc f6 5e 3e 9e 82 f6 3c
       0.5747398 -0.0703107 0.21773857 0.03009158
0001f0 36 ea 8a bd 22 38 04 bf f6 5b 41 3e 08 e7 4b be
       -0.067829534 -0.5164815 0.18882737 -0.1991235
000200 1e 3d 79 3e 4e cf f3 3c 11 d6 ad bd 0a d2 45 3e
       0.2433972 0.029761937 -0.084880956 0.19318405
000210 ea 08 af bc 72 91 00 3f df 73 6e bd 55 cd 5f be
       -0.021366555 0.5022193 -0.058215972 -0.21855672
000220 57 72 3e be 89 e1 02 bd 6a b8 26 bc 2d 0f ca bd
       -0.18598305 -0.03195337 -0.010175804 -0.09866176
000230 b5 2e 5d be b8 d8 80 bc 97 af 80 be ea 89 9c bd
       -0.21599849 -0.01572834 -0.25133964 -0.076434925
000240 6d cc 1b be 2d dd 5d be 3c ab 2d bd 64 8b 29 be
       -0.15214701 -0.21666403 -0.04239963 -0.1655708
000250 15 a0 5a bd ef 38 31 bd b6 80 e1 bd 7c 7d 84 bd
       -0.053375322 -0.043267187 -0.11010878 -0.06469247
000260 cd 06 70 be 39 1b 71 bd 8e 7a 2d bc ae 89 1c be
       -0.23440094 -0.058863852 -0.010588301 -0.15286896
000270 c0 fd 1e be 2d c1 d8 bc 4e 87 6a be f1 78 0c be
       -0.15526485 -0.0264593 -0.22903177 -0.1371801
000280 25 b0 d1 bb e8 a1 3f be 78 19 cf bc d3 2e 5a be
       -0.006399172 -0.18714106 -0.0252807 -0.21306925
000290 bb 74 f1 3d 2e e4 b2 3d f8 c2 9b 3c 26 b0 c1 bd
       0.11789843 0.08734928 0.019013867 -0.09457426
0002a0 7e 94 39 be fc b3 6d 3e 9a de 52 3e f6 c4 99 3b
       -0.18123052 0.2321319 0.20592728 0.004692669
0002b0 4d ea 83 3c 96 89 bb 3d 75 9b 84 bf 3e 76 9b be
       0.016102934 0.09157102 -1.0359942 -0.3036365
0002c0 0b d3 6e bc cb 55 0e 3e c6 cd ae 3d 9b 35 cb 3e
       -0.014576684 0.13899915 0.08535342 0.39689335
0002d0 72 a0 b1 be 21 17 37 3e b3 68 3a 3e 15 17 08 3c
       -0.34692723 0.17879917 0.18204002 0.008306284
0002e0 e4 b1 d4 bd df 9f 60 3d ce ad 5c bd af e2 02 be
       -0.103854924 0.054839965 -0.05387669 -0.12781785
0002f0 cc 16 33 3e 1f ff 90 bd a2 44 bd 3d 6d 8d 03 3d
       0.17489165 -0.070799105 0.09241606 0.032117296
000300 5a 0b 50 bd 86 b4 43 bc f8 06 22 3d 72 a1 f4 bd
       -0.050792076 -0.011944896 0.039557427 -0.11944856
000310 b3 21 ef bc d5 8d 31 3c aa 57 76 bd 84 d4 cd 3d
       -0.029190874 0.010837038 -0.060142197 0.100503
000320 f3 41 f6 ba 65 ed 0a be a0 13 a3 3b ce 45 5d 3d
       -0.0018787965 -0.13567121 0.0049767047 0.05402165
000330 f7 7d ad 3d 53 3a af bd 89 f1 3d 3e 76 e0 00 3f
       0.084712915 -0.08556046 0.1854917 0.503425
000340 76 56 3e be 09 7d 3a 3f 05 0f 35 bc 03 d0 16 bf
       -0.1858767 0.7284704 -0.011050944 -0.5891115
000350 e7 7c c2 be 9e 48 1e be 81 1b 1c bd 2f f5 fc 3c
       -0.37985918 -0.15457389 -0.038112167 0.030878631
000360 ea a9 5d 3e 1f 9e a6 be dc 0f 15 3e 24 aa 9c be
       0.21646848 -0.32542512 0.14556831 -0.30598557
000370 5c ba 07 3e f6 e0 16 3e 0f a0 8c 3e cf fe 65 3e
       0.13254684 0.14734253 0.27465865 0.22460483
000380 03 65 f2 be 48 ae 74 bc fd f7 12 3e 87 e8 3f bd
       -0.4734269 -0.01493413 0.14352413 -0.046852615
000390 dc 86 9b 3d 65 7d 28 3c b2 ff cc bd 05 ae 77 3e
       0.07594082 0.010283803 -0.100097075 0.24187477
0003a0 2c bd 9b be 6a 11 4f bb 57 f4 0c 3e 02 86 83 3e
       -0.30417764 -0.0031596073 0.13765083 0.25688177
0003b0 b9 00 ec be 9c 2c db ba 8e ee 44 bd 71 fd a9 3d
       -0.460943 -0.0016721669 -0.048079066 0.08300293
0003c0 ce d7 7c bc de 88 99 3d 3d df 09 3d 88 b0 9b 3e
       -0.015432311 0.074968085 0.033660162 0.3040812
0003d0 3e 29 e9 bd 8c 9f d7 bd 5e 8e fa bd 16 00 2f bd
       -0.113848194 -0.10528478 -0.12234186 -0.04272469
0003e0 00 10 eb 3d 9b 74 7c be a0 d1 27 3f 35 cd 61 3e
       0.11477661 -0.24653856 0.6555424 0.22050937
0003f0 2a 40 87 bd ed 6d 7a 3e cf 5f b4 bd 33 ee 3a 3e
       -0.06604035 0.24455996 -0.088073365 0.18254928

conv1.bias f4 [16]
000000 a8 01 80 3f 30 f4 25 bf 3f fb 8d 3f db e7 64 3f
       1.0000505 -0.64825726 1.1092299 0.89416283
000010 be d5 64 be 85 fc 97 bc c8 bc 42 3f a5 9d 2b 3f
       -0.22347161 -0.018553028 0.7606931 0.6703742
000020 33 7e 93 3f d4 3a 1a bf 3f e8 ba 3e 1a c6 b7 3f
       1.1522888 -0.60246015 0.36505315 1.4357331
000030 4e 38 43 bd 83 f1 0d 3f 32 b3 93 3e d6 92 d9 3f
       -0.04766112 0.5544664 0.28847653 1.6997936

convnorm1.weight f4 [16]
000000 11 3d f5 3f 63 ba b9 3f df b6 c9 3f 84 cc 92 3f
       1.9159261 1.4510006 1.5758933 1.1468663
000010 c3 ee 73 3f 56 4e 4e 3f 3c 4b 9a 3f 2f 8b a1 3f
       0.95286196 0.8058828 1.205421 1.26206
000020 1c a6 a5 3f db 50 a3 3f cb 93 b4 3f f6 ec a5 3f
       1.2941318 1.275905 1.4107603 1.296294
000030 41 e2 6d 3f 70 6d 26 40 68 c0 08 40 9b b5 d1 3f
       0.9292336 2.6004295 2.1367435 1.6383547

convnorm1.bias f4 [16]
000000 e2 d4 b6 3e 12 b9 4a be df f8 82 3e 54 13 7c 3e
       0.35709292 -0.19797161 0.255805 0.24616748
000010 ad 2c 05 3e 08 80 05 3f 22 0d 57 3e 30 65 22 3e
       0.13005324 0.52148485 0.21001104 0.15858912
000020 78 db 11 3f 14 fe 51 be 86 2f 23 3e 29 f3 fd 3e
       0.5697551 -0.2050708 0.15936098 0.4959958
000030 57 54 2e 3e 56 c3 7d 3e e0 26 bd 3e 18 fc 06 3f
       0.1702436 0.24781546 0.36943722 0.52728415

convnorm1.running_mean f4 [16]
000000 3e 87 bb 40 8a cd db 41 58 da 16 41 a5 eb fb 41
       5.860259 27.47536 9.428307 31.49006
000010 51 ed 68 42 04 00 00 00 92 e0 4e 41 b9 56 c6 41
       58.231754 6e-45 12.929827 24.792345
000020 32 25 cf 41 46 2a 09 43 d5 61 6c 41 c1 0d 6b 41
       25.893162 137.16513 14.773885 14.690858
000030 de 88 d7 41 91 dd 57 41 ba 19 99 40 1c c6 87 41
       26.94183 13.491593 4.7843904 16.971733

convnorm1.running_var f4 [16]
000000 b5 88 52 43 a6 56 89 44 67 1e b0 43 2d be 05 45
       210.53401 1098.7078 352.23752 2139.886
000010 e5 0c 5e 45 04 00 00 00 7a 19 54 44 ab 41 d9 44
       3552.806 6e-45 848.3981 1738.0521
000020 ec cd b8 44 8f 57 9d 45 fc 40 19 44 2a 50 31 44
       1478.435 5034.945 613.0154 709.25256
000030 63 2d ee 44 6e 26 a2 43 29 86 43 43 2b b5 2f 44
       1905.4183 324.30023 195.52406 702.83075

conv2.weight f4 [128, 16, 3, 3]
000000 11 fd 08 3e cc 9d 11 3e 4b 3c bc 3d 8c b2 4f be
       0.13377787 0.14220351 0.091911875 -0.20282954
000010 6f ea 03 bd ab 79 73 3e 00 65 3c bd e2 06 16 3e
       -0.032205995 0.23776881 -0.04599476 0.14651063
000020 d4 cb 69 3e 6f 3c ad be 4b 78 8a be e9 67 61 3d
       0.2283166 -0.3383517 -0.270449 0.055030737
000030 2a 0c 96 be 78 7e 64 3c 3e 17 90 be 2c 86 27 3d
       -0.29306155 0.013946168 -0.28142732 0.04089944
000040 08 be 91 be 28 82 ae be ba 35 49 3e 58 72 fd 3d
       -0.28465295 -0.34083676 0.19649401 0.12375325
000050 8c 13 6d 3d 71 15 f0 3d 4b eb b3 3c 69 fe b0 be
       0.05787997 0.117228396 0.021962782 -0.345691
000060 d5 03 37 3d d6 31 77 3e 66 29 b0 3d 47 26 82 3d
       0.04468139 0.24140105 0.08601646 0.06354957
000070 f4 59 74 bc 72 d4 4a 3d 16 af e3 bd 52 c9 87 bd
       -0.014914025 0.04951901 -0.11117379 -0.06630196
000080 c0 63 2f bd 43 88 4c bd 71 21 2c be 09 ba d4 bd
       -0.04281974 -0.049934637 -0.16809632 -0.10387046
000090 ce cd 47 be 0b ef 01 bc 76 06 2c bd 3a 40 b1 bd
       -0.19512102 -0.007930527 -0.04199835 -0.08654828
0000a0 18 9c 3a bd 97 e5 00 be ff f3 e0 bd 50 47 68 be
       -0.04555902 -0.12587582 -0.109840386 -0.22683454
0000b0 c9 a9 2f be b5 7c d2 3d 30 07 65 3d 55 e6 62 ba
       -0.17154612 0.10277692 0.055915058 -0.0008655538
0000c0 fe 59 2f bd 83 98 85 3d e5 b9 43 3c 1a 79 32 3b
       -0.042810433 0.0652323 0.011946176 0.0027232827
0000d0 ac 88 11 bb 6a 34 85 3b 07 4c 2d 3c ca 93 e9 3d
       -0.0022206707 0.004065086 0.010577208 0.11405142
0000e0 48 84 89 bc 97 da 8c 3e f8 76 17 be 87 fd 38 3e
       -0.01678671 0.2751052 -0.14791477 0.18065463
0000f0 68 dc de 3a 11 7e ef 3d 8a d4 1e 3e b5 a5 d0 3c
       0.0017002942 0.11693967 0.15510765 0.02546964
000100 0b d2 76 be 6d 4e 8e be 65 e1 95 bc 30 73 88 be
       -0.24103563 -0.2779421 -0.018295953 -0.2665038
000110 59 af a7 bd 27 e4 a1 be 75 f7 65 be 67 dc c8 be
       -0.08187742 -0.3161938 -0.22457679 -0.39230654
000120 43 83 19 bf ff f6 df 3d 5c 56 f7 bd 67 54 68 3e
       -0.59965914 0.10935783 -0.120770186 0.22688447
000130 34 6f c6 bd db 26 2a bf ff 3f 59 be f0 df 3b bf
       -0.09689179 -0.6646554 -0.21215819 -0.73388577
000140 5e e7 35 3e 6c ca ab be b4 59 34 3d 90 4d 26 bd
       0.17764041 -0.33552873 0.04403086 -0.040601313
000150 b9 36 e2 bd 37 7a 8e 3d 12 a4 b9 be 20 d8 d7 3b
       -0.11045594 0.069569044 -0.36257988 0.0065870434
000160 c7 41 e9 be 56 3b f2 bd a5 ba 82 be 46 cc 94 3d
       -0.45557997 -0.11827724 -0.25533023 0.072655246
000170 e4 8a 20 3d 21 85 cf bb 7c 1a c5 3b 41 c3 a6 3d
       0.039194956 -0.006333009 0.00601512 0.081427105
000180 3a 34 cf 3c c3 1c a2 bd e5 79 17 bd 6c 88 a4 be
       0.025293458 -0.07915642 -0.036981482 -0.32135332
000190 fd 09 f0 3d ef 48 6a bf 80 29 15 3e f8 dc 7b bf
       0.11720655 -0.9151754 0.14566612 -0.98384047
0001a0 b8 85 3a be ad 56 83 bf f7 8a 95 3c b0 95 d7 3d
       -0.18215072 -1.0260826 0.01825474 0.105265975
0001b0 86 6e 56 3e 16 ef 62 3e 11 aa 39 bd a8 d9 94 3c
       0.20940599 0.22161517 -0.045328204 0.018170193
0001c0 7c c6 8d bd ce 38 1b 3e a7 3d 1b bd 29 c2 4d 3d
       -0.069226235 0.15158388 -0.037900593 0.050233994
0001d0 39 f6 f9 3d 7f 87 80 3e ba 22 b2 be 6f e2 39 bc
       0.12205166 0.25103375 -0.3479212 -0.01134549
0001e0 53 a1 15 bf 4d a1 b8 3d af f8 89 3e 44 2a 07 3e
       -0.58449286 0.09015141 0.26947543 0.13199717
0001f0 5f b3 24 3e 6d de 2d bf 48 ce 79 3e c6 66 25 be
       0.1608405 -0.6791752 0.24395096 -0.16152486
000200 0c 2a 1e be ad 0a 82 3e 94 1c e2 bd 98 b3 c8 3c
       -0.15445727 0.2539877 -0.11040607 0.0244997
000210 98 2e 1f be dc db ec be e1 31 b5 3e 86 50 66 bc
       -0.15545118 -0.4626149 0.35389617 -0.014057284
000220 14 c4 9e 3d 66 1d c1 bc 06 89 70 bd 47 15 10 be
       0.07752243 -0.023573589 -0.058724426 -0.14070617
000230 f7 3f 0d bd 03 3c 14 3e 87 39 92 be 64 15 29 be
       -0.03448483 0.14476018 -0.28559515 -0.16512066
000240 a9 1a 0e bf 65 a3 bc bd 4a a5 09 be da 9f c7 3e
       -0.5550943 -0.092108525 -0.13441959 0.38989145
000250 ff 03 a9 3d 04 3b d4 be 36 05 a0 3d 19 8e c0 be
       0.08252715 -0.41451275 0.07813494 -0.37608412
000260 86 79 c8 3e e4 b3 9d be 52 18 90 3d 0f 65 a2 3e
       0.39155215 -0.30801308 0.07035889 0.31717727
000270 59 fc 3a bd b4 e0 69 3e 01 31 cc be 34 b2 61 3e
       -0.045650814 0.22839624 -0.39881137 0.22040635
000280 8b 0f 86 be a1 a6 3c 3d 9b 55 07 bf c2 04 58 bf
       -0.26183733 0.046057347 -0.52865 -0.8438226
000290 1d 49 ce 3e 16 c3 86 bf 40 d8 3c 3e 1a 42 84 be
       0.40290156 -1.0528286 0.18441868 -0.2583168
0002a0 ce 65 c5 3e 10 bb 02 be fe 27 25 bf 67 d0 aa 3d
       0.38554233 -0.12766671 -0.6451415 0.08340531
0002b0 7b df 14 3d 1a 65 48 3d b5 e6 9d 3d a3 9a fd 3d
       0.03634594 0.048924543 0.077100195 0.1238301
0002c0 d8 05 10 3d 62 cc da 3d f7 cb 19 3e fa 2c bc 3d
       0.035161823 0.10683514 0.15019213 0.09188266
0002d0 fd 2d c7 bc 41 4c 20 be 87 89 fa 3c 44 a0 c1 bd
       -0.024313921 -0.15654089 0.030583156 -0.09454396
0002e0 d9 12 87 bc 8c 6d d8 bc 2a 9f 09 3e 6b 41 66 bc
       -0.01648848 -0.026419424 0.13439623 -0.014053683
0002f0 ea 27 8d bd 31 46 8c 3e 8e 1e bd 3e ba 6d cc 3e
       -0.06892379 0.27397302 0.36937374 0.39927465
000300 9f dd a0 3e f7 91 ac 3e 26 46 96 3e d8 a9 8d 3e
       0.31419083 0.33705112 0.29350394 0.27668643
000310 75 68 ad 3e 9c 8d b4 3e 0a 83 d0 bd 4b b3 33 3c
       0.33868757 0.3526429 -0.10181244 0.01096804
000320 55 19 c9 bd b1 84 74 bd 51 b0 5a bd 3f 79 2f 3d
       -0.09819285 -0.059696857 -0.053390805 0.04284024
000330 2f 8f 29 be b9 cf db 3b a2 c0 2a 3e 26 8f a4 bd
       -0.16558526 0.006708112 0.16675046 -0.08035116
000340 f7 4e 00 3c 21 7b 0e bd ce 3b 7f 3d aa 23 de 3d
       0.007831327 -0.034785394 0.062312894 0.10846646
000350 13 ff ed 3d 4d c7 00 3e 8f 3b 4c 3e 5c 8e 01 3c
       0.11620917 0.12576027 0.19944595 0.007907476
000360 a5 57 e4 be 87 0b 3c 3e de 26 36 bf d6 ea fb 3d
       -0.44598117 0.18363772 -0.71153057 0.12300651
000370 28 68 12 bf 3f d3 d0 be 69 83 e7 be 08 b3 f0 be
       -0.5719018 -0.40786168 -0.45217445 -0.4701159
000380 84 4d a5 3d 68 c2 0e 3e ae 6b 65 be 5b 6b 88 be
       0.080714256 0.13941348 -0.22404358 -0.26644406
000390 fe e7 2d be 9e b3 75 be ca 66 1f 3d 36 8c c8 bc
       -0.16983029 -0.239943 0.038916387 -0.02448092
0003a0 b1 7e 7e 3d c9 49 59 be ae 43 f9 bd 69 bd 03 3d
       0.06213254 -0.21219553 -0.12171112 0.032163057
0003b0 a9 0f 0f bf 9f 44 1d 3e a7 f8 df bd 56 4c 5d bd
       -0.5588327 0.15358208 -0.109360985 -0.054027878
0003c0 0d 67 4f bc 92 d6 2f bd 07 3a 87 3d 4f 32 36 bf
       -0.012658847 -0.04292924 0.06602865 -0.71170515
0003d0 e8 6b f7 be cc ed 35 be fc 39 96 be 65 19 21 3d
       -0.48324513 -0.17766494 -0.29341114 0.03933086
0003e0 21 64 62 bf 9f bb 82 bb 88 6b b3 bf 40 4f a2 be
       -0.88434035 -0.0039896513 -1.4017191 -0.31701088
0003f0 5b 23 ac bd 6e 7d 4b be d3 bc 28 3e bd 63 76 bd
       -0.08405181 -0.19872066 0.1647828 -0.06015371

conv2.bias f4 [128]
000000 b9 1b c5 3b 59 fd c4 3e 0c 2e 25 3e 19 2a 40 3e
       0.0060152677 0.3847454 0.16130847 0.18766059
000010 76 19 2a 3e 31 e2 80 bc f4 82 36 3e 8d 28 06 3e
       0.16611275 -0.015732856 0.17823392 0.13101406
000020 26 5b b9 bd c0 af 83 3e 17 da ee bc 18 b2 f5 be
       -0.09050588 0.25720024 -0.029156728 -0.47987437
000030 ae 78 96 3e 77 c6 30 3e 12 99 86 be 92 2b d9 3d
       0.29388946 0.17263208 -0.26288658 0.106040135
000040 7f c2 dd 3d f5 88 22 be 70 c6 47 be d7 d1 df 3e
       0.10828113 -0.15872557 -0.19509292 0.43714783
000050 53 36 f9 3d be a6 04 bc 3f 43 15 3f 04 41 68 3e
       0.12168565 -0.008096395 0.58305734 0.22681051
000060 2d 76 6c 3e 4f a2 a9 3e da e6 d6 bd 6a 0a f2 be
       0.23091955 0.33131644 -0.1049325 -0.4727357
000070 75 ea e5 3d 5d 77 3a 3c 9c da 9c 3e fd b6 10 bc
       0.1122636 0.0113809975 0.30635536 -0.00883269
000080 13 36 ad bd 36 fc 91 3e d2 4e 3f 3e e0 fa 0a 3e
       -0.084575795 0.28512734 0.18682411 0.13572264
000090 14 c3 79 3e a0 17 23 3e b8 5a 03 3d 35 fd 93 be
       0.24390823 0.15926981 0.032068938 -0.2890412
0000a0 f6 2a cf bd a7 89 91 3e 9b e3 96 bc 90 06 2e bd
       -0.10115616 0.28425333 -0.018419078 -0.042486727
0000b0 38 1c af 3e 20 44 3e be 66 31 ed 3c 9c a0 66 bd
       0.34201217 -0.18580675 0.02895422 -0.056305513
0000c0 5d 5a 8b 3d 59 90 98 bd 80 a2 8a bc 8d 89 03 3e
       0.06804345 -0.07449407 -0.01692319 0.1284544
0000d0 79 41 22 bd ac d4 47 3d e0 2a 51 3d a3 77 87 3e
       -0.03961322 0.048786804 0.05106628 0.26458463
0000e0 2e 6a 20 3d b3 11 c6 bd 2f 4d a5 3d e0 97 71 3e
       0.03916376 -0.096713446 0.08071362 0.23593092
0000f0 89 ad c5 3d 03 93 6e 3d 23 7c 10 3e 03 c5 06 3e
       0.0965224 0.05824567 0.14109854 0.13161092
000100 15 08 a2 3d ad 4a 59 3d c7 d2 35 3e 54 fc be 3d
       0.07911698 0.053049732 0.17756186 0.093254715
000110 f4 91 29 bd 84 44 41 bf fa ce 82 3d e5 a4 fb 3b
       -0.041398957 -0.7549517 0.06387134 0.007679569
000120 21 ee 5a be 16 ca b3 3d 59 7a 93 3e 55 e0 82 3d
       -0.21379901 0.08778779 0.2880428 0.06390444
000130 c6 09 56 3d 07 8b c7 3e 58 e8 bb 3a 71 e7 00 3d
       0.052255414 0.38973257 0.0014336212 0.03147072
000140 4a db a7 3e c9 04 1a 3d 6b e0 8e be 31 0b a2 3d
       0.32784492 0.03760222 -0.27905592 0.07912291
000150 d2 4b 32 3e 7c e5 84 3c cd 6c 61 bd ca 58 c1 3d
       0.17411736 0.016222708 -0.0550354 0.09440763
000160 a6 59 91 3e 42 d0 cb bd de e2 e1 bd eb db 85 3e
       0.2838871 -0.099518314 -0.110295996 0.26144347
000170 6e 43 03 be 9b 59 db 3d d8 cd a1 3d 94 16 19 3e
       -0.12818691 0.1071045 0.0790059 0.14950019
000180 c2 01 1e 3d 36 17 f9 bc 22 31 fc 3c 89 55 35 3e
       0.038575895 -0.030406576 0.030785147 0.1770841
000190 ff 33 f6 3e ae e4 15 3e f0 fe b8 3d 19 c1 70 3d
       0.48086545 0.14638016 0.090330005 0.058777902
0001a0 1c 65 70 bc c7 45 de 3c 21 43 6a 3d f9 8b 1e 3f
       -0.014672544 0.027132882 0.057192925 0.6193233
0001b0 93 d8 6b bd e9 b0 ba 3d 48 e2 a8 3e 51 ca f0 3d
       -0.05757959 0.09115774 0.3298514 0.11757339
0001c0 3e a3 f0 3d c1 0a 8e 3e 8a 42 d9 3d 45 ec 40 3e
       0.11749886 0.2774258 0.106083944 0.1884013
0001d0 8d 59 2b 3d 6a 76 52 3e a6 2b 9c 3d 6c 7c 3f 3e
       0.04183345 0.20552984 0.07625513 0.18699807
0001e0 7f 1a bb bd 6c 31 67 3d db 16 37 3d 37 a7 4e 3e
       -0.09135913 0.056443617 0.04469953 0.20180975
0001f0 f0 02 8a bd 17 b8 ee 3e bb 40 a4 3d 22 6a 45 3d
       -0.067388415 0.46624824 0.08020159 0.04819692

linear.weight f4 [17, 128]
000000 bc f4 b7 3e ec 5b ad bd 94 14 0c 3e 64 51 dc 3d
       0.35928905 -0.08464798 0.13679725 0.107577115
000010 67 c9 06 3e fe e1 76 3a d4 c9 e4 bd 8c a4 78 bf
       0.13162766 0.0009417831 -0.11171308 -0.9712608
000020 6b d9 ce bd e9 5a 3e 3f c0 91 09 bd fa ee 42 be
       -0.10100063 0.7435747 -0.033586264 -0.19036475
000030 7b 68 29 bd 32 7b f5 bd 9a e2 84 be 78 2d 69 be
       -0.041359406 -0.11986388 -0.25954133 -0.22771251
000040 0b 39 ac 3e 86 60 fe be 69 69 5d be 49 2c 4e 3e
       0.3363727 -0.49683017 -0.21622242 0.20134081
000050 22 dd fd bc 01 01 d6 be 9b b7 ee 3d 35 b8 ba bd
       -0.030989233 -0.4179764 0.11656114 -0.09117166
000060 b4 90 39 3e d7 5f 78 be cb 23 ba 3e 5a 5f b1 be
       0.18121606 -0.2425531 0.36355433 -0.3464306
000070 8a 26 86 be 34 bc 3c 3e be b3 98 be 59 a9 ac 3e
       -0.26201278 0.18431169 -0.29824632 0.33722952
000080 ed 4a bb be 75 78 0a 3e 93 38 69 be 18 ba 07 bd
       -0.365806 0.13522513 -0.22775488 -0.033136457
000090 10 5e f3 bc 84 a5 ab 3e 9b 2a 0e bf 6c 29 37 be
       -0.029707938 0.33524716 -0.5553376 -0.17886895
0000a0 2c c0 89 bd 9b 44 44 3e d4 b5 25 3c 96 3f 3d bf
       -0.06726107 0.19166796 0.010114152 -0.7392515
0000b0 93 04 13 be 68 57 d9 be fb db ac bd 9c d3 96 3d
       -0.14357214 -0.42449498 -0.084403954 0.0736458
0000c0 1d b0 62 3e 06 ec 9c 3d 9c 1c e2 3e 75 f8 a4 be
       0.22137494 0.076622054 0.44162452 -0.32220808
0000d0 66 42 7b be ed 41 59 3e b9 ba 77 be 21 1e 37 3e
       -0.24537048 0.21216555 -0.24192323 0.17882587
0000e0 36 de 97 bc b1 79 e2 be da 8f a4 3d 81 68 95 3e
       -0.018538576 -0.44233468 0.0803525 0.29181293
0000f0 46 66 b0 3e 8a 93 f6 3c 80 b5 8d be ce e0 8c 3d
       0.34453028 0.030099649 -0.27677536 0.068788156
000100 11 18 c7 bd e8 d8 86 bd 96 f1 07 3e f5 ac 03 bf
       -0.09721387 -0.0658434 0.13275751 -0.51435786
000110 46 ee 08 3e b0 d5 90 3c a0 83 8f be f4 9b 41 be
       0.13372144 0.01768002 -0.2803011 -0.18907148
000120 45 ab 26 bf dc a1 ce bc 54 19 e8 bc 46 89 06 3e
       -0.65105087 -0.025223665 -0.02833239 0.13138303
000130 d9 20 b3 3e 11 6c 35 bf c1 ad 62 be a3 ec 9b be
       0.34985998 -0.7086802 -0.22136594 -0.30453977
000140 21 15 ec be 02 17 a3 bd 57 e5 93 be 65 38 18 be
       -0.4610987 -0.07963373 -0.2888591 -0.14865263
000150 bd 0e a8 3d 4d 1a 7c 3e 27 d3 51 bf 27 8a 75 3e
       0.08205936 0.24619408 -0.8196282 0.23978482
000160 ec 68 eb bc 93 e6 5d 3e 3d 9c 73 be 50 b8 73 3e
       -0.028736554 0.21669988 -0.23790069 0.23800778
000170 10 30 d3 bd 6d 08 94 bd 8c 77 12 bf 72 1d ee 3d
       -0.103119016 -0.072281696 -0.57213664 0.1162671
000180 a7 4c d5 be 7f e4 63 be 11 19 00 bf 59 8e fd 3d
       -0.41660044 -0.22255133 -0.5003825 0.12380666
000190 84 39 f6 be d9 df bd be a0 a4 1f 3f 59 c7 16 3e
       -0.48090756 -0.37084845 0.6236057 0.14724483
0001a0 13 c5 9e be 4b e1 90 3e 3c ef 40 3e 19 ee 6d 3c
       -0.3100973 0.28296885 0.1884126 0.014522099
0001b0 ad f3 10 bf d6 cd 77 3d 46 dc 88 3e 5e 80 eb bc
       -0.5662182 0.060499035 0.26730555 -0.028747734
0001c0 87 0b 41 be 01 2e 85 be 6f b0 11 be fe f4 71 be
       -0.18852054 -0.2601166 -0.1422746 -0.23628613
0001d0 a8 e1 c3 be 5b a6 b0 be 9e 6f 9d 3d 45 08 a1 be
       -0.382581 -0.3450192 0.07687305 -0.31451622
0001e0 39 1e 49 3e 93 29 0c bf bd 16 11 3d 6e c1 02 3f
       0.19640435 -0.5475094 0.035422076 0.510764
0001f0 5e 6b 8e be 57 23 9a 3e ff c1 ad bd 75 ce a4 3e
       -0.2781629 0.30105087 -0.084842674 0.32188764
000200 5a 41 83 3e 95 22 10 bf 87 30 8d 3d 3e 0c a1 bb
       0.25635797 -0.5630277 0.068940215 -0.0049147895
000210 c9 36 0a 3e af b9 4a be e8 2e 0b 3e 53 19 7f be
       0.13497461 -0.19797395 0.13592112 -0.24912004
000220 af b3 98 bc 0d 5a 6c 3b b6 68 51 3c 5d 7c aa bd
       -0.018640367 0.0036064417 0.012781313 -0.08324502
000230 c9 fd 27 3e a7 a1 cd 3d cd d7 1c bf a1 9d 80 bd
       0.16405405 0.10040598 -0.61266786 -0.06280065
000240 5d 32 8f be 4a 0c 5c 3e 3c 55 56 3e 54 67 63 be
       -0.27968112 0.21489063 0.20930952 -0.22207385
000250 33 57 54 bd b6 26 eb be 8f 1d 75 3c 56 be f0 bd
       -0.051840972 -0.45927972 0.014960661 -0.11755054
000260 b0 d2 f9 be 29 4b 34 3f 16 5f 36 bc 7d 9b 97 3e
       -0.48793554 0.70427185 -0.011131069 0.29610816
000270 1a 4c ed bc 82 ab a8 3c 13 61 53 3c c8 2e 35 3d
       -0.028966952 0.020589594 0.012901562 0.044234067
000280 cb 47 2f 3d 8f 84 af be 78 c8 45 3e 35 a9 c3 be
       0.042793076 -0.34280822 0.19314754 -0.38215032
000290 d5 df a1 bd a7 f0 77 be 4e d8 77 3e df 66 7f be
       -0.07904021 -0.24212895 0.24203607 -0.24941586
0002a0 a2 7a 53 be d3 9a 23 be 62 e8 11 3d b8 2c 8d be
       -0.2065225 -0.1597703 0.03562201 -0.2757318
0002b0 0b fe 21 bd 97 d9 21 3d cf 96 f9 be e6 13 58 3d
       -0.039548915 0.03951415 -0.4874787 0.05275335
0002c0 3c 00 8d bc bd 11 0d be 48 51 d6 3e d6 8f 06 be
       -0.017212026 -0.13776298 0.41858888 -0.13140807
0002d0 77 54 16 be 24 c5 21 3f 25 5c 5b 3e 5a 6a 4b 3c
       -0.14680658 0.6319144 0.21421869 0.012415493
0002e0 3f fe d2 bc 8f 3b be 3d ed 8a cd bd 1b 60 a5 3e
       -0.025756 0.09288704 -0.100362636 0.32299885
0002f0 57 35 2f 3e c2 47 6e bf 29 0a b0 be 8b fe 7b 3e
       0.17110191 -0.93078244 -0.34382752 0.24608819
000300 8c 17 65 be e2 f4 db bd fb 7d 61 be e1 d9 e7 3d
       -0.22372264 -0.10740067 -0.22020714 0.11320854
000310 3b ab 3d be 71 5f 0a 3e 64 ec d5 3e ce e0 c8 bd
       -0.1852235 0.1351297 0.41781914 -0.09808503
000320 29 78 9f be d8 b6 04 3c bd 07 cd bd b7 fe 57 bc
       -0.31146362 0.008100234 -0.100112416 -0.013183287
000330 e2 17 e3 3e ad c7 84 3e 47 e4 5f 3d 64 b7 20 be
       0.4435416 0.2593359 0.05466106 -0.15694958
000340 78 5a a4 3e 13 0b 65 bb 41 42 b6 3e be 58 46 3e
       0.32100272 -0.0034949228 0.35597423 0.1936979
000350 7e 8f ee bd 32 10 b8 be 4b 76 44 be c2 cf 59 3e
       -0.11648463 -0.35949856 -0.1918575 0.2127066
000360 9b a8 ee 3d 41 fa b0 bd 8e 2b b8 be be ab a0 3d
       0.11653253 -0.08641482 -0.3597073 0.07845257
000370 f1 d7 11 be ce 27 b4 3e 13 ce 0e 3e bb 6c 98 bd
       -0.14242531 0.3518662 0.13945799 -0.07442614
000380 54 ff 17 3e 47 89 a7 be 15 9c 3e 3e fc eb 14 bf
       0.14843494 -0.32721922 0.18614228 -0.58172584
000390 8b 28 91 3d 54 c5 c8 be 33 24 97 bd 20 7a 88 be
       0.07087811 -0.3921305 -0.07379951 -0.26655674
0003a0 9b 58 ea 3c bc 07 f0 be 9d ce 04 be 76 08 44 bc
       0.028606704 -0.468809 -0.12969442 -0.011964908
0003b0 88 91 fe 3e 7e 6c fe bd 44 f4 46 bc 20 4a 1c 3e
       0.49720407 -0.12423037 -0.012143198 0.15262651
0003c0 96 ea 80 3e 68 a2 fd bb 68 b1 c6 3e b2 a4 97 bd
       0.25178975 -0.0077403076 0.38807225 -0.0740446
0003d0 11 8f 2a bd ad 98 ee be 01 08 b0 3e 16 1a 46 bc
       -0.041640345 -0.46600857 0.34381106 -0.01209118
0003e0 f2 6f 5f be cd 8e 60 bf 2e 7f 26 3e ad b1 4f 3e
       -0.21820047 -0.87717897 0.16259453 0.20282622
0003f0 57 a7 8d 3e ad d2 ec be f4 f0 fd 3e c5 2e 22 be
       0.27666733 -0.46254483 0.49597895 -0.15838154

linear.bias f4 [17]
000000 4d a0 f1 3c 3e 65 76 be c6 40 47 bd 37 d2 29 bf
       0.029495383 -0.24062058 -0.048645757 -0.6633639
000010 bf d9 c4 bd 49 58 f8 bd 9e fa cd be 17 71 fb be
       -0.09611844 -0.12126214 -0.40230268 -0.49109718
000020 a6 a5 05 3e c2 be 04 bf 46 2a e7 be 73 d1 a4 bd
       0.13051471 -0.51853573 -0.4514944 -0.08047762
000030 55 2e b2 be 15 64 98 bd 07 30 18 bf 6e a5 a5 be
       -0.34800974 -0.07440964 -0.59448284 -0.32352775
000040 14 26 1e bf
       -0.6177685
